Model: "functional_1"
__________________________________________________________________________________________________
Layer (type)                    Output Shape         Param #     Connected to                     
==================================================================================================
input_1 (InputLayer)            [(None, 224, 224, 3) 0                                            
__________________________________________________________________________________________________
conv2d (Conv2D)                 (None, 224, 224, 16) 432         input_1[0][0]                    
__________________________________________________________________________________________________
batch_normalization (BatchNorma (None, 224, 224, 16) 64          conv2d[0][0]                     
__________________________________________________________________________________________________
re_lu (ReLU)                    (None, 224, 224, 16) 0           batch_normalization[0][0]        
__________________________________________________________________________________________________
batch_normalization_1 (BatchNor (None, 224, 224, 16) 64          re_lu[0][0]                      
__________________________________________________________________________________________________
re_lu_1 (ReLU)                  (None, 224, 224, 16) 0           batch_normalization_1[0][0]      
__________________________________________________________________________________________________
conv2d_2 (Conv2D)               (None, 224, 224, 16) 256         re_lu_1[0][0]                    
__________________________________________________________________________________________________
batch_normalization_2 (BatchNor (None, 224, 224, 16) 64          conv2d_2[0][0]                   
__________________________________________________________________________________________________
re_lu_2 (ReLU)                  (None, 224, 224, 16) 0           batch_normalization_2[0][0]      
__________________________________________________________________________________________________
conv2d_3 (Conv2D)               (None, 224, 224, 16) 2304        re_lu_2[0][0]                    
__________________________________________________________________________________________________
batch_normalization_3 (BatchNor (None, 224, 224, 16) 64          conv2d_3[0][0]                   
__________________________________________________________________________________________________
re_lu_3 (ReLU)                  (None, 224, 224, 16) 0           batch_normalization_3[0][0]      
__________________________________________________________________________________________________
conv2d_1 (Conv2D)               (None, 224, 224, 64) 1024        re_lu[0][0]                      
__________________________________________________________________________________________________
conv2d_4 (Conv2D)               (None, 224, 224, 64) 1024        re_lu_3[0][0]                    
__________________________________________________________________________________________________
add (Add)                       (None, 224, 224, 64) 0           conv2d_1[0][0]                   
                                                                 conv2d_4[0][0]                   
__________________________________________________________________________________________________
batch_normalization_4 (BatchNor (None, 224, 224, 64) 256         add[0][0]                        
__________________________________________________________________________________________________
re_lu_4 (ReLU)                  (None, 224, 224, 64) 0           batch_normalization_4[0][0]      
__________________________________________________________________________________________________
conv2d_5 (Conv2D)               (None, 224, 224, 16) 1024        re_lu_4[0][0]                    
__________________________________________________________________________________________________
batch_normalization_5 (BatchNor (None, 224, 224, 16) 64          conv2d_5[0][0]                   
__________________________________________________________________________________________________
re_lu_5 (ReLU)                  (None, 224, 224, 16) 0           batch_normalization_5[0][0]      
__________________________________________________________________________________________________
conv2d_6 (Conv2D)               (None, 224, 224, 16) 2304        re_lu_5[0][0]                    
__________________________________________________________________________________________________
batch_normalization_6 (BatchNor (None, 224, 224, 16) 64          conv2d_6[0][0]                   
__________________________________________________________________________________________________
re_lu_6 (ReLU)                  (None, 224, 224, 16) 0           batch_normalization_6[0][0]      
__________________________________________________________________________________________________
conv2d_7 (Conv2D)               (None, 224, 224, 64) 1024        re_lu_6[0][0]                    
__________________________________________________________________________________________________
add_1 (Add)                     (None, 224, 224, 64) 0           conv2d_7[0][0]                   
                                                                 add[0][0]                        
__________________________________________________________________________________________________
batch_normalization_7 (BatchNor (None, 224, 224, 64) 256         add_1[0][0]                      
__________________________________________________________________________________________________
re_lu_7 (ReLU)                  (None, 224, 224, 64) 0           batch_normalization_7[0][0]      
__________________________________________________________________________________________________
conv2d_8 (Conv2D)               (None, 224, 224, 16) 1024        re_lu_7[0][0]                    
__________________________________________________________________________________________________
batch_normalization_8 (BatchNor (None, 224, 224, 16) 64          conv2d_8[0][0]                   
__________________________________________________________________________________________________
re_lu_8 (ReLU)                  (None, 224, 224, 16) 0           batch_normalization_8[0][0]      
__________________________________________________________________________________________________
conv2d_9 (Conv2D)               (None, 224, 224, 16) 2304        re_lu_8[0][0]                    
__________________________________________________________________________________________________
batch_normalization_9 (BatchNor (None, 224, 224, 16) 64          conv2d_9[0][0]                   
__________________________________________________________________________________________________
re_lu_9 (ReLU)                  (None, 224, 224, 16) 0           batch_normalization_9[0][0]      
__________________________________________________________________________________________________
conv2d_10 (Conv2D)              (None, 224, 224, 64) 1024        re_lu_9[0][0]                    
__________________________________________________________________________________________________
add_2 (Add)                     (None, 224, 224, 64) 0           conv2d_10[0][0]                  
                                                                 add_1[0][0]                      
__________________________________________________________________________________________________
batch_normalization_10 (BatchNo (None, 224, 224, 64) 256         add_2[0][0]                      
__________________________________________________________________________________________________
re_lu_10 (ReLU)                 (None, 224, 224, 64) 0           batch_normalization_10[0][0]     
__________________________________________________________________________________________________
batch_normalization_11 (BatchNo (None, 224, 224, 64) 256         re_lu_10[0][0]                   
__________________________________________________________________________________________________
re_lu_11 (ReLU)                 (None, 224, 224, 64) 0           batch_normalization_11[0][0]     
__________________________________________________________________________________________________
conv2d_12 (Conv2D)              (None, 112, 112, 32) 2048        re_lu_11[0][0]                   
__________________________________________________________________________________________________
batch_normalization_12 (BatchNo (None, 112, 112, 32) 128         conv2d_12[0][0]                  
__________________________________________________________________________________________________
re_lu_12 (ReLU)                 (None, 112, 112, 32) 0           batch_normalization_12[0][0]     
__________________________________________________________________________________________________
conv2d_13 (Conv2D)              (None, 112, 112, 32) 9216        re_lu_12[0][0]                   
__________________________________________________________________________________________________
batch_normalization_13 (BatchNo (None, 112, 112, 32) 128         conv2d_13[0][0]                  
__________________________________________________________________________________________________
re_lu_13 (ReLU)                 (None, 112, 112, 32) 0           batch_normalization_13[0][0]     
__________________________________________________________________________________________________
conv2d_11 (Conv2D)              (None, 112, 112, 128 8192        re_lu_10[0][0]                   
__________________________________________________________________________________________________
conv2d_14 (Conv2D)              (None, 112, 112, 128 4096        re_lu_13[0][0]                   
…
                                                                 conv2d_14[0][0]                  
__________________________________________________________________________________________________
batch_normalization_14 (BatchNo (None, 112, 112, 128 512         add_3[0][0]                      
__________________________________________________________________________________________________
re_lu_14 (ReLU)                 (None, 112, 112, 128 0           batch_normalization_14[0][0]     
__________________________________________________________________________________________________
conv2d_15 (Conv2D)              (None, 112, 112, 32) 4096        re_lu_14[0][0]                   
__________________________________________________________________________________________________
batch_normalization_15 (BatchNo (None, 112, 112, 32) 128         conv2d_15[0][0]                  
__________________________________________________________________________________________________
re_lu_15 (ReLU)                 (None, 112, 112, 32) 0           batch_normalization_15[0][0]     
__________________________________________________________________________________________________
conv2d_16 (Conv2D)              (None, 112, 112, 32) 9216        re_lu_15[0][0]                   
__________________________________________________________________________________________________
batch_normalization_16 (BatchNo (None, 112, 112, 32) 128         conv2d_16[0][0]                  
__________________________________________________________________________________________________
re_lu_16 (ReLU)                 (None, 112, 112, 32) 0           batch_normalization_16[0][0]     
__________________________________________________________________________________________________
conv2d_17 (Conv2D)              (None, 112, 112, 128 4096        re_lu_16[0][0]                   
__________________________________________________________________________________________________
add_4 (Add)                     (None, 112, 112, 128 0           conv2d_17[0][0]                  
…
re_lu_20 (ReLU)                 (None, 112, 112, 128 0           batch_normalization_20[0][0]     
__________________________________________________________________________________________________
batch_normalization_21 (BatchNo (None, 112, 112, 128 512         re_lu_20[0][0]                   
__________________________________________________________________________________________________
re_lu_21 (ReLU)                 (None, 112, 112, 128 0           batch_normalization_21[0][0]     
__________________________________________________________________________________________________
conv2d_22 (Conv2D)              (None, 56, 56, 64)   8192        re_lu_21[0][0]                   
__________________________________________________________________________________________________
batch_normalization_22 (BatchNo (None, 56, 56, 64)   256         conv2d_22[0][0]                  
__________________________________________________________________________________________________
re_lu_22 (ReLU)                 (None, 56, 56, 64)   0           batch_normalization_22[0][0]     
__________________________________________________________________________________________________
conv2d_23 (Conv2D)              (None, 56, 56, 64)   36864       re_lu_22[0][0]                   
__________________________________________________________________________________________________
batch_normalization_23 (BatchNo (None, 56, 56, 64)   256         conv2d_23[0][0]                  
__________________________________________________________________________________________________
re_lu_23 (ReLU)                 (None, 56, 56, 64)   0           batch_normalization_23[0][0]     
__________________________________________________________________________________________________
conv2d_21 (Conv2D)              (None, 56, 56, 256)  32768       re_lu_20[0][0]                   
__________________________________________________________________________________________________
conv2d_24 (Conv2D)              (None, 56, 56, 256)  16384       re_lu_23[0][0]                   
__________________________________________________________________________________________________
add_6 (Add)                     (None, 56, 56, 256)  0           conv2d_21[0][0]                  
                                                                 conv2d_24[0][0]                  
__________________________________________________________________________________________________
batch_normalization_24 (BatchNo (None, 56, 56, 256)  1024        add_6[0][0]                      
__________________________________________________________________________________________________
re_lu_24 (ReLU)                 (None, 56, 56, 256)  0           batch_normalization_24[0][0]     
__________________________________________________________________________________________________
conv2d_25 (Conv2D)              (None, 56, 56, 64)   16384       re_lu_24[0][0]                   
__________________________________________________________________________________________________
batch_normalization_25 (BatchNo (None, 56, 56, 64)   256         conv2d_25[0][0]                  
__________________________________________________________________________________________________
re_lu_25 (ReLU)                 (None, 56, 56, 64)   0           batch_normalization_25[0][0]     
__________________________________________________________________________________________________
conv2d_26 (Conv2D)              (None, 56, 56, 64)   36864       re_lu_25[0][0]                   
__________________________________________________________________________________________________
batch_normalization_26 (BatchNo (None, 56, 56, 64)   256         conv2d_26[0][0]                  
__________________________________________________________________________________________________
re_lu_26 (ReLU)                 (None, 56, 56, 64)   0           batch_normalization_26[0][0]     
__________________________________________________________________________________________________
conv2d_27 (Conv2D)              (None, 56, 56, 256)  16384       re_lu_26[0][0]                   
__________________________________________________________________________________________________
add_7 (Add)                     (None, 56, 56, 256)  0           conv2d_27[0][0]                  
                                                                 add_6[0][0]                      
__________________________________________________________________________________________________
batch_normalization_27 (BatchNo (None, 56, 56, 256)  1024        add_7[0][0]                      
__________________________________________________________________________________________________
re_lu_27 (ReLU)                 (None, 56, 56, 256)  0           batch_normalization_27[0][0]     
__________________________________________________________________________________________________
conv2d_28 (Conv2D)              (None, 56, 56, 64)   16384       re_lu_27[0][0]                   
__________________________________________________________________________________________________
batch_normalization_28 (BatchNo (None, 56, 56, 64)   256         conv2d_28[0][0]                  
__________________________________________________________________________________________________
re_lu_28 (ReLU)                 (None, 56, 56, 64)   0           batch_normalization_28[0][0]     
__________________________________________________________________________________________________
conv2d_29 (Conv2D)              (None, 56, 56, 64)   36864       re_lu_28[0][0]                   
__________________________________________________________________________________________________
batch_normalization_29 (BatchNo (None, 56, 56, 64)   256         conv2d_29[0][0]                  
__________________________________________________________________________________________________
re_lu_29 (ReLU)                 (None, 56, 56, 64)   0           batch_normalization_29[0][0]     
__________________________________________________________________________________________________
conv2d_30 (Conv2D)              (None, 56, 56, 256)  16384       re_lu_29[0][0]                   
__________________________________________________________________________________________________
add_8 (Add)                     (None, 56, 56, 256)  0           conv2d_30[0][0]                  
                                                                 add_7[0][0]                      
__________________________________________________________________________________________________
batch_normalization_30 (BatchNo (None, 56, 56, 256)  1024        add_8[0][0]                      
__________________________________________________________________________________________________
re_lu_30 (ReLU)                 (None, 56, 56, 256)  0           batch_normalization_30[0][0]     
__________________________________________________________________________________________________
global_average_pooling2d (Globa (None, 256)          0           re_lu_30[0][0]                   
__________________________________________________________________________________________________
dense (Dense)                   (None, 2)            514         global_average_pooling2d[0][0]   
__________________________________________________________________________________________________
activation (Activation)         (None, 2)            0           dense[0][0]                      
==================================================================================================
Total params: 315,058
Trainable params: 310,578
Non-trainable params: 4,480
__________________________________________________________________________________________________